…
Number of nonpeaks after removing outliers:  474451
got the model
Model: "model"
__________________________________________________________________________________________________
 Layer (type)                   Output Shape         Param #     Connected to                     
==================================================================================================
 sequence (InputLayer)          [(None, 1024, 4)]    0           []                               
                                                                                                  
 bpnet_1st_conv (Conv1D)        (None, 1004, 128)    10880       ['sequence[0][0]']               
                                                                                                  
 bpnet_1conv (Conv1D)           (None, 1000, 128)    49280       ['bpnet_1st_conv[0][0]']         
                                                                                                  
 bpnet_1crop (Cropping1D)       (None, 1000, 128)    0           ['bpnet_1st_conv[0][0]']         
                                                                                                  
 add (Add)                      (None, 1000, 128)    0           ['bpnet_1conv[0][0]',            
                                                                  'bpnet_1crop[0][0]']            
                                                                                                  
 bpnet_2conv (Conv1D)           (None, 992, 128)     49280       ['add[0][0]']                    
                                                                                                  
 bpnet_2crop (Cropping1D)       (None, 992, 128)     0           ['add[0][0]']                    
                                                                                                  
 add_1 (Add)                    (None, 992, 128)     0           ['bpnet_2conv[0][0]',            
                                                                  'bpnet_2crop[0][0]']            
                                                                                                  
 bpnet_3conv (Conv1D)           (None, 976, 128)     49280       ['add_1[0][0]']                  
                                                                                                  
 bpnet_3crop (Cropping1D)       (None, 976, 128)     0           ['add_1[0][0]']                  
                                                                                                  
 add_2 (Add)                    (None, 976, 128)     0           ['bpnet_3conv[0][0]',            
                                                                  'bpnet_3crop[0][0]']            
                                                                                                  
 bpnet_4conv (Conv1D)           (None, 944, 128)     49280       ['add_2[0][0]']                  
                                                                                                  
 bpnet_4crop (Cropping1D)       (None, 944, 128)     0           ['add_2[0][0]']                  
                                                                                                  
 add_3 (Add)                    (None, 944, 128)     0           ['bpnet_4conv[0][0]',            
                                                                  'bpnet_4crop[0][0]']            
                                                                                                  
 prof_out_precrop (Conv1D)      (None, 870, 1)       9601        ['add_3[0][0]']                  
                                                                                                  
 logits_profile_predictions_pre  (None, 800, 1)      0           ['prof_out_precrop[0][0]']       
 flatten (Cropping1D)                                                                             
                                                                                                  
 gap (GlobalAveragePooling1D)   (None, 128)          0           ['add_3[0][0]']                  
                                                                                                  
 logits_profile_predictions (Fl  (None, 800)         0           ['logits_profile_predictions_pref
 atten)                                                          latten[0][0]']                   
                                                                                                  
 logcount_predictions (Dense)   (None, 1)            129         ['gap[0][0]']                    
                                                                                                  
==================================================================================================
Total params: 217,730
Trainable params: 217,730
Non-trainable params: 0
__________________________________________________________________________________________________
…
